[Tue, 07 Nov 2023 21:56:50 INFO] .vi * src vocab size = 12177
[Tue, 07 Nov 2023 21:56:50 INFO] .lo * tgt vocab size = 12947
[Tue, 07 Nov 2023 21:56:50 INFO] Building model...
[Tue, 07 Nov 2023 21:56:51 INFO] Transformer(
  (encoder): Encoder(
    (embed): Embedding(12177, 512)
    (pe): PositionalEncoder(
      (dropout): Dropout(p=0.1, inplace=False)
    )
    (layers): ModuleList(
      (0-5): 6 x EncoderLayer(
        (norm_1): Norm()
        (norm_2): Norm()
        (attn): MultiHeadAttention(
          (q_linear): Linear(in_features=512, out_features=512, bias=True)
          (k_linear): Linear(in_features=512, out_features=512, bias=True)
          (v_linear): Linear(in_features=512, out_features=512, bias=True)
          (dropout): Dropout(p=0.1, inplace=False)
          (out): Linear(in_features=512, out_features=512, bias=True)
        )
        (ff): FeedForward(
          (linear_1): Linear(in_features=512, out_features=2048, bias=True)
          (dropout): Dropout(p=0.1, inplace=False)
          (linear_2): Linear(in_features=2048, out_features=512, bias=True)
        )
        (dropout_1): Dropout(p=0.1, inplace=False)
        (dropout_2): Dropout(p=0.1, inplace=False)
      )
    )
    (norm): Norm()
  )
  (decoder): Decoder(
    (embed): Embedding(12947, 512)
    (pe): PositionalEncoder(
      (dropout): Dropout(p=0.1, inplace=False)
    )
    (layers): ModuleList(
      (0-5): 6 x DecoderLayer(
        (norm_1): Norm()
        (norm_2): Norm()
        (norm_3): Norm()
        (dropout_1): Dropout(p=0.1, inplace=False)
        (dropout_2): Dropout(p=0.1, inplace=False)
        (dropout_3): Dropout(p=0.1, inplace=False)
        (attn_1): MultiHeadAttention(
          (q_linear): Linear(in_features=512, out_features=512, bias=True)
          (k_linear): Linear(in_features=512, out_features=512, bias=True)
          (v_linear): Linear(in_features=512, out_features=512, bias=True)
          (dropout): Dropout(p=0.1, inplace=False)
          (out): Linear(in_features=512, out_features=512, bias=True)
        )
        (attn_2): MultiHeadAttention(
          (q_linear): Linear(in_features=512, out_features=512, bias=True)
          (k_linear): Linear(in_features=512, out_features=512, bias=True)
          (v_linear): Linear(in_features=512, out_features=512, bias=True)
          (dropout): Dropout(p=0.1, inplace=False)
          (out): Linear(in_features=512, out_features=512, bias=True)
        )
        (ff): FeedForward(
          (linear_1): Linear(in_features=512, out_features=2048, bias=True)
          (dropout): Dropout(p=0.1, inplace=False)
          (linear_2): Linear(in_features=2048, out_features=512, bias=True)
        )
      )
    )
    (norm): Norm()
  )
  (out): Linear(in_features=512, out_features=12947, bias=True)
)
[Tue, 07 Nov 2023 21:56:51 INFO] Encoder: 25149952
[Tue, 07 Nov 2023 21:56:51 INFO] Decoder: 31854080
[Tue, 07 Nov 2023 21:56:51 INFO] * Number of parameters: 57004032
[Tue, 07 Nov 2023 21:56:51 INFO] Starting training on cuda
[Tue, 07 Nov 2023 22:02:49 INFO] epoch: 000 - iter: 00200 - train loss: 2.3183 - time elapsed/per batch: 358.1798 1.7909
[Tue, 07 Nov 2023 22:09:03 INFO] epoch: 000 - iter: 00400 - train loss: 1.9797 - time elapsed/per batch: 374.3983 1.8720
…
