[Wed, 08 Nov 2023 16:01:40 INFO] .vi * src vocab size = 12177
[Wed, 08 Nov 2023 16:01:40 INFO] .lo * tgt vocab size = 12947
[Wed, 08 Nov 2023 16:01:40 INFO] Building model...
[Wed, 08 Nov 2023 16:01:41 INFO] Transformer(
  (encoder): Encoder(
    (embed): Embedding(12177, 512)
    (pe): PositionalEncoder(
      (dropout): Dropout(p=0.1, inplace=False)
    )
    (layers): ModuleList(
      (0-5): 6 x EncoderLayer(
        (norm_1): Norm()
        (norm_2): Norm()
        (attn): MultiHeadAttention(
          (q_linear): Linear(in_features=512, out_features=512, bias=True)
          (k_linear): Linear(in_features=512, out_features=512, bias=True)
          (v_linear): Linear(in_features=512, out_features=512, bias=True)
          (dropout): Dropout(p=0.1, inplace=False)
          (out): Linear(in_features=512, out_features=512, bias=True)
        )
        (ff): FeedForward(
          (linear_1): Linear(in_features=512, out_features=2048, bias=True)
          (dropout): Dropout(p=0.1, inplace=False)
          (linear_2): Linear(in_features=2048, out_features=512, bias=True)
        )
        (dropout_1): Dropout(p=0.1, inplace=False)
        (dropout_2): Dropout(p=0.1, inplace=False)
      )
    )
    (norm): Norm()
  )
  (decoder): Decoder(
    (embed): Embedding(12947, 512)
    (pe): PositionalEncoder(
      (dropout): Dropout(p=0.1, inplace=False)
    )
    (layers): ModuleList(
      (0-5): 6 x DecoderLayer(
        (norm_1): Norm()
        (norm_2): Norm()
        (norm_3): Norm()
        (dropout_1): Dropout(p=0.1, inplace=False)
        (dropout_2): Dropout(p=0.1, inplace=False)
        (dropout_3): Dropout(p=0.1, inplace=False)
        (attn_1): MultiHeadAttention(
          (q_linear): Linear(in_features=512, out_features=512, bias=True)
          (k_linear): Linear(in_features=512, out_features=512, bias=True)
          (v_linear): Linear(in_features=512, out_features=512, bias=True)
          (dropout): Dropout(p=0.1, inplace=False)
          (out): Linear(in_features=512, out_features=512, bias=True)
        )
        (attn_2): MultiHeadAttention(
          (q_linear): Linear(in_features=512, out_features=512, bias=True)
          (k_linear): Linear(in_features=512, out_features=512, bias=True)
          (v_linear): Linear(in_features=512, out_features=512, bias=True)
          (dropout): Dropout(p=0.1, inplace=False)
          (out): Linear(in_features=512, out_features=512, bias=True)
        )
        (ff): FeedForward(
          (linear_1): Linear(in_features=512, out_features=2048, bias=True)
          (dropout): Dropout(p=0.1, inplace=False)
          (linear_2): Linear(in_features=2048, out_features=512, bias=True)
        )
      )
    )
    (norm): Norm()
  )
  (out): Linear(in_features=512, out_features=12947, bias=True)
)
[Wed, 08 Nov 2023 16:01:41 INFO] Encoder: 25149952
[Wed, 08 Nov 2023 16:01:41 INFO] Decoder: 31854080
[Wed, 08 Nov 2023 16:01:41 INFO] * Number of parameters: 57004032
[Wed, 08 Nov 2023 16:01:41 INFO] Starting training on cuda
