[Fri, 10 Nov 2023 15:38:33 INFO] .lo * src vocab size = 11925
[Fri, 10 Nov 2023 15:38:33 INFO] .vi * tgt vocab size = 11064
[Fri, 10 Nov 2023 15:38:33 INFO] Building model...
[Fri, 10 Nov 2023 15:38:34 INFO] Transformer(
  (encoder): Encoder(
    (embed): Embedding(11925, 512)
    (pe): PositionalEncoder(
      (dropout): Dropout(p=0.1, inplace=False)
    )
    (layers): ModuleList(
      (0-5): 6 x EncoderLayer(
        (norm_1): Norm()
        (norm_2): Norm()
        (attn): MultiHeadAttention(
          (q_linear): Linear(in_features=512, out_features=512, bias=True)
          (k_linear): Linear(in_features=512, out_features=512, bias=True)
          (v_linear): Linear(in_features=512, out_features=512, bias=True)
          (dropout): Dropout(p=0.1, inplace=False)
          (out): Linear(in_features=512, out_features=512, bias=True)
        )
        (ff): FeedForward(
          (linear_1): Linear(in_features=512, out_features=2048, bias=True)
          (dropout): Dropout(p=0.1, inplace=False)
          (linear_2): Linear(in_features=2048, out_features=512, bias=True)
        )
        (dropout_1): Dropout(p=0.1, inplace=False)
        (dropout_2): Dropout(p=0.1, inplace=False)
      )
    )
    (norm): Norm()
  )
  (decoder): Decoder(
    (embed): Embedding(11064, 512)
    (pe): PositionalEncoder(
      (dropout): Dropout(p=0.1, inplace=False)
    )
    (layers): ModuleList(
      (0-5): 6 x DecoderLayer(
        (norm_1): Norm()
        (norm_2): Norm()
        (norm_3): Norm()
        (dropout_1): Dropout(p=0.1, inplace=False)
        (dropout_2): Dropout(p=0.1, inplace=False)
        (dropout_3): Dropout(p=0.1, inplace=False)
        (attn_1): MultiHeadAttention(
          (q_linear): Linear(in_features=512, out_features=512, bias=True)
          (k_linear): Linear(in_features=512, out_features=512, bias=True)
          (v_linear): Linear(in_features=512, out_features=512, bias=True)
          (dropout): Dropout(p=0.1, inplace=False)
          (out): Linear(in_features=512, out_features=512, bias=True)
        )
        (attn_2): MultiHeadAttention(
          (q_linear): Linear(in_features=512, out_features=512, bias=True)
          (k_linear): Linear(in_features=512, out_features=512, bias=True)
          (v_linear): Linear(in_features=512, out_features=512, bias=True)
          (dropout): Dropout(p=0.1, inplace=False)
          (out): Linear(in_features=512, out_features=512, bias=True)
        )
        (ff): FeedForward(
          (linear_1): Linear(in_features=512, out_features=2048, bias=True)
          (dropout): Dropout(p=0.1, inplace=False)
          (linear_2): Linear(in_features=2048, out_features=512, bias=True)
        )
      )
    )
    (norm): Norm()
  )
  (out): Linear(in_features=512, out_features=11064, bias=True)
)
[Fri, 10 Nov 2023 15:38:34 INFO] Encoder: 25020928
[Fri, 10 Nov 2023 15:38:34 INFO] Decoder: 30889984
[Fri, 10 Nov 2023 15:38:34 INFO] * Number of parameters: 55910912
[Fri, 10 Nov 2023 15:38:34 INFO] Starting training on cuda
