[Fri, 10 Nov 2023 16:02:38 INFO] .lo * src vocab size = 11981
[Fri, 10 Nov 2023 16:02:38 INFO] .vi * tgt vocab size = 11296
[Fri, 10 Nov 2023 16:02:38 INFO] Building model...
[Fri, 10 Nov 2023 16:02:39 INFO] Transformer(
  (encoder): Encoder(
    (embed): Embedding(11981, 512)
    (pe): PositionalEncoder(
      (dropout): Dropout(p=0.1, inplace=False)
    )
    (layers): ModuleList(
      (0-5): 6 x EncoderLayer(
        (norm_1): Norm()
        (norm_2): Norm()
        (attn): MultiHeadAttention(
          (q_linear): Linear(in_features=512, out_features=512, bias=True)
          (k_linear): Linear(in_features=512, out_features=512, bias=True)
          (v_linear): Linear(in_features=512, out_features=512, bias=True)
          (dropout): Dropout(p=0.1, inplace=False)
          (out): Linear(in_features=512, out_features=512, bias=True)
        )
        (ff): FeedForward(
          (linear_1): Linear(in_features=512, out_features=2048, bias=True)
          (dropout): Dropout(p=0.1, inplace=False)
          (linear_2): Linear(in_features=2048, out_features=512, bias=True)
        )
        (dropout_1): Dropout(p=0.1, inplace=False)
        (dropout_2): Dropout(p=0.1, inplace=False)
      )
    )
    (norm): Norm()
  )
  (decoder): Decoder(
    (embed): Embedding(11296, 512)
    (pe): PositionalEncoder(
      (dropout): Dropout(p=0.1, inplace=False)
    )
    (layers): ModuleList(
      (0-5): 6 x DecoderLayer(
        (norm_1): Norm()
        (norm_2): Norm()
        (norm_3): Norm()
        (dropout_1): Dropout(p=0.1, inplace=False)
        (dropout_2): Dropout(p=0.1, inplace=False)
        (dropout_3): Dropout(p=0.1, inplace=False)
        (attn_1): MultiHeadAttention(
          (q_linear): Linear(in_features=512, out_features=512, bias=True)
          (k_linear): Linear(in_features=512, out_features=512, bias=True)
          (v_linear): Linear(in_features=512, out_features=512, bias=True)
          (dropout): Dropout(p=0.1, inplace=False)
          (out): Linear(in_features=512, out_features=512, bias=True)
        )
        (attn_2): MultiHeadAttention(
          (q_linear): Linear(in_features=512, out_features=512, bias=True)
          (k_linear): Linear(in_features=512, out_features=512, bias=True)
          (v_linear): Linear(in_features=512, out_features=512, bias=True)
          (dropout): Dropout(p=0.1, inplace=False)
          (out): Linear(in_features=512, out_features=512, bias=True)
        )
        (ff): FeedForward(
          (linear_1): Linear(in_features=512, out_features=2048, bias=True)
          (dropout): Dropout(p=0.1, inplace=False)
          (linear_2): Linear(in_features=2048, out_features=512, bias=True)
        )
      )
    )
    (norm): Norm()
  )
  (out): Linear(in_features=512, out_features=11296, bias=True)
)
[Fri, 10 Nov 2023 16:02:39 INFO] Encoder: 25049600
[Fri, 10 Nov 2023 16:02:39 INFO] Decoder: 31008768
[Fri, 10 Nov 2023 16:02:39 INFO] * Number of parameters: 56058368
[Fri, 10 Nov 2023 16:02:39 INFO] Starting training on cuda
